…
s.
Train:  (4096, 176, 176, 1) (4096,)
Valid:  (1024, 176, 176, 1) (1024,)
Test:  (1280, 176, 176, 1) (1280,)

Before:  Counter({2.0: 2048, 3.0: 1433, 0.0: 574, 1.0: 41})
After:  Counter({0.0: 2076, 2.0: 2048, 1.0: 2047, 3.0: 1840})

Train:  (8011, 176, 176, 1) (8011,)
Valid:  (1024, 176, 176, 1) (1024,)
Test:  (1280, 176, 176, 1) (1280,)
(8011, 4)
Model: "sequential_8"
_________________________________________________________________
Layer (type)                 Output Shape              Param #   
=================================================================
conv2d (Conv2D)              (None, 88, 88, 16)        160       
_________________________________________________________________
conv2d_1 (Conv2D)            (None, 88, 88, 16)        6416      
_________________________________________________________________
conv2d_2 (Conv2D)            (None, 88, 88, 32)        4640      
_________________________________________________________________
batch_normalization (BatchNo (None, 88, 88, 32)        128       
_________________________________________________________________
max_pooling2d (MaxPooling2D) (None, 44, 44, 32)        0         
_________________________________________________________________
sequential (Sequential)      (None, 22, 22, 32)        18624     
_________________________________________________________________
sequential_1 (Sequential)    (None, 11, 11, 64)        55680     
_________________________________________________________________
dropout (Dropout)            (None, 11, 11, 64)        0         
_________________________________________________________________
sequential_2 (Sequential)    (None, 5, 5, 128)         221952    
_________________________________________________________________
dropout_1 (Dropout)          (None, 5, 5, 128)         0         
_________________________________________________________________
sequential_3 (Sequential)    (None, 2, 2, 256)         886272    
_________________________________________________________________
global_average_pooling2d (Gl (None, 256)               0         
_________________________________________________________________
sequential_4 (Sequential)    (None, 512)               133632    
_________________________________________________________________
sequential_5 (Sequential)    (None, 256)               132352    
_________________________________________________________________
sequential_6 (Sequential)    (None, 128)               33408     
_________________________________________________________________
sequential_7 (Sequential)    (None, 64)                8512      
_________________________________________________________________
dense_4 (Dense)              (None, 4)                 260       
=================================================================
Total params: 1,502,036
Trainable params: 1,499,092
Non-trainable params: 2,944
_________________________________________________________________
None
Epoch 1/50
401/401 [==============================] - 335s 834ms/step - loss: 1.6029 - auc: 0.5474 - acc: 0.2943 - f1_score: 0.1716 - val_loss: 1.6283 - val_auc: 0.7747 - val_acc: 0.4980 - val_f1_score: 0.5010
…
